…
 was changed by setting attribute after it was run by a session. This mutation will have no effect, and will trigger an error in the future. Either don't modify nodes after running them or create a new session.
1.19.4
=>>>>
Model: "model_2"
_________________________________________________________________
Layer (type)                 Output Shape              Param #   
=================================================================
input_1 (InputLayer)         [(None, 200)]             0         
_________________________________________________________________
embedding (Embedding)        (None, 200, 128)          128000    
_________________________________________________________________
bidirectional (Bidirectional (None, 200, 1000)         2516000   
_________________________________________________________________
bidirectional_1 (Bidirection (None, 1000)              6004000   
_________________________________________________________________
dense_1 (Dense)              (None, 500)               500500    
_________________________________________________________________
dense_2 (Dense)              (None, 300)               150300    
_________________________________________________________________
repeat_vector_1 (RepeatVecto (None, 200, 300)          0         
_________________________________________________________________
dec_lstm_1 (LSTM)            (None, 200, 500)          1602000   
_________________________________________________________________
dec_lstm_2 (LSTM)            (None, 200, 500)          2002000   
_________________________________________________________________
decoded_mean (TimeDistribute (None, 200, 1000)         501000    
=================================================================
Total params: 13,403,800
Trainable params: 13,403,800
Non-trainable params: 0
_________________________________________________________________
None
Train on 20000 samples, validate on 1000 samples
Epoch 1/10
   10/20000 [..............................] - ETA: 1:33:50 - loss: 0.9669 - accuracy: 0.3335
…
