…
2021-04-06 23:37:06.877298: I tensorflow/compiler/jit/xla_gpu_device.cc:99] Not creating XLA devices, tf_xla_enable_xla_devices not set
Model: "model_3"
__________________________________________________________________________________________________
Layer (type)                    Output Shape         Param #     Connected to                     
==================================================================================================
input_1 (InputLayer)            [(None, 200)]        0                                            
__________________________________________________________________________________________________
embedding (Embedding)           (None, 200, 64)      64000       input_1[0][0]                    
__________________________________________________________________________________________________
bidirectional (Bidirectional)   (None, 200, 1000)    2260000     embedding[0][0]                  
__________________________________________________________________________________________________
bidirectional_1 (Bidirectional) (None, 1000)         6004000     bidirectional[0][0]              
__________________________________________________________________________________________________
dense_1 (Dense)                 (None, 435)          435435      bidirectional_1[0][0]            
__________________________________________________________________________________________________
z_mean (Dense)                  (None, 200)          87200       dense_1[0][0]                    
__________________________________________________________________________________________________
z_log_var (Dense)               (None, 200)          87200       dense_1[0][0]                    
__________________________________________________________________________________________________
lambda (Lambda)                 (None, 200)          0           z_mean[0][0]                     
                                                                 z_log_var[0][0]                  
__________________________________________________________________________________________________
repeat_vector_1 (RepeatVector)  (None, 200, 200)     0           lambda[0][0]                     
__________________________________________________________________________________________________
dec_lstm_1 (LSTM)               (None, 200, 500)     1402000     repeat_vector_1[0][0]            
__________________________________________________________________________________________________
dec_lstm_2 (LSTM)               (None, 200, 500)     2002000     dec_lstm_1[0][0]                 
__________________________________________________________________________________________________
dense_3 (Dense)                 (None, 100)          20100       lambda[0][0]                     
__________________________________________________________________________________________________
decoded_mean (TimeDistributed)  (None, 200, 1000)    501000      dec_lstm_2[0][0]                 
__________________________________________________________________________________________________
pred (Dense)                    (None, 1)            101         dense_3[0][0]                    
==================================================================================================
Total params: 12,863,036
Trainable params: 12,863,036
Non-trainable params: 0
__________________________________________________________________________________________________
None
Traceback (most recent call last):
  File "./test_model.py", line 18, in <module>
…
